…
   "source": [
    "clear_session()"
   ]
  },
  {
   "cell_type": "markdown",
   "metadata": {},
   "source": [
    "#### MLP (Sequence API)"
   ]
  },
  {
   "cell_type": "code",
   "execution_count": 29,
   "metadata": {},
   "outputs": [
    {
     "name": "stdout",
     "output_type": "stream",
     "text": [
      "_________________________________________________________________\n",
      "Layer (type)                 Output Shape              Param #   \n",
      "=================================================================\n",
      "flatten (Flatten)            (None, 3072)              0         \n",
      "_________________________________________________________________\n",
      "dense (Dense)                (None, 128)               393344    \n",
      "_________________________________________________________________\n",
      "batch_normalization (BatchNo (None, 128)               512       \n",
      "_________________________________________________________________\n",
      "re_lu (ReLU)                 (None, 128)               0         \n",
      "_________________________________________________________________\n",
      "dropout (Dropout)            (None, 128)               0         \n",
      "_________________________________________________________________\n",
      "dense_1 (Dense)              (None, 64)                8256      \n",
      "_________________________________________________________________\n",
      "batch_normalization_1 (Batch (None, 64)                256       \n",
      "_________________________________________________________________\n",
      "re_lu_1 (ReLU)               (None, 64)                0         \n",
      "_________________________________________________________________\n",
      "dropout_1 (Dropout)          (None, 64)                0         \n",
      "_________________________________________________________________\n",
      "dense_2 (Dense)              (None, 10)                650       \n",
      "=================================================================\n",
      "Total params: 403,018\n",
      "Trainable params: 402,634\n",
      "Non-trainable params: 384\n",
      "_________________________________________________________________\n"
     ]
    }
   ],
   "source": [
    "model_MLP = Sequential()\n",
    "\n",
    "model_MLP.add(Flatten(input_shape=(32, 32, 3)))\n",
…
    "model_CNN.add(Activation('relu'))\n",
    "model_CNN.add(Dropout(0.5))\n",
    "model_CNN.add(Dense(num_classes))\n",
    "model_CNN.add(Activation('softmax'))"
   ]
  },
  {
   "cell_type": "code",
   "execution_count": 24,
   "metadata": {},
   "outputs": [
    {
     "name": "stdout",
     "output_type": "stream",
     "text": [
      "_________________________________________________________________\n",
      "Layer (type)                 Output Shape              Param #   \n",
      "=================================================================\n",
      "conv2d (Conv2D)              (None, 32, 32, 32)        896       \n",
      "_________________________________________________________________\n",
      "activation (Activation)      (None, 32, 32, 32)        0         \n",
      "_________________________________________________________________\n",
      "conv2d_1 (Conv2D)            (None, 30, 30, 32)        9248      \n",
      "_________________________________________________________________\n",
      "activation_1 (Activation)    (None, 30, 30, 32)        0         \n",
      "_________________________________________________________________\n",
      "max_pooling2d (MaxPooling2D) (None, 15, 15, 32)        0         \n",
      "_________________________________________________________________\n",
      "dropout_2 (Dropout)          (None, 15, 15, 32)        0         \n",
      "_________________________________________________________________\n",
      "conv2d_2 (Conv2D)            (None, 15, 15, 64)        18496     \n",
      "_________________________________________________________________\n",
      "activation_2 (Activation)    (None, 15, 15, 64)        0         \n",
      "_________________________________________________________________\n",
      "conv2d_3 (Conv2D)            (None, 13, 13, 64)        36928     \n",
      "_________________________________________________________________\n",
      "activation_3 (Activation)    (None, 13, 13, 64)        0         \n",
      "_________________________________________________________________\n",
      "max_pooling2d_1 (MaxPooling2 (None, 6, 6, 64)          0         \n",
      "_________________________________________________________________\n",
      "dropout_3 (Dropout)          (None, 6, 6, 64)          0         \n",
      "_________________________________________________________________\n",
      "flatten_1 (Flatten)          (None, 2304)              0         \n",
      "_________________________________________________________________\n",
      "dense_3 (Dense)              (None, 512)               1180160   \n",
      "_________________________________________________________________\n",
      "activation_4 (Activation)    (None, 512)               0         \n",
      "_________________________________________________________________\n",
      "dropout_4 (Dropout)          (None, 512)               0         \n",
      "_________________________________________________________________\n",
      "dense_4 (Dense)              (None, 10)                5130      \n",
      "_________________________________________________________________\n",
      "activation_5 (Activation)    (None, 10)                0         \n",
      "=================================================================\n",
      "Total params: 1,250,858\n",
      "Trainable params: 1,250,858\n",
      "Non-trainable params: 0\n",
      "_________________________________________________________________\n"
     ]
    }
   ],
   "source": [
    "model_CNN.summary()"
   ]
  },
  {
   "cell_type": "markdown",
   "metadata": {},
…
